Notebooks/Models/checkpoint_mlp__1703001418.pt (torch, 1759 bytes, 3 tensors)

layers.layer_0.weight f4 [5, 2]
0.86032754 -0.85759205 -0.776502 2.295884 0.7543103 0.8260462 -0.41081944 -0.2935433
-0.8509164 1.2602025
00000000: 6d3e 5c3f 278b 5bbf d6c8 46bf c3ef 1240
00000010: 7b1a 413f c477 533f ed56 d2be 4f4b 96be
00000020: a8d5 59bf 514e a13f

layers.layer_0.bias f4 [5]
-3.3267417 4.7183743 -2.4524107 2.1076248 -3.6643097
00000000: 56e9 54c0 ecfc 9640 4cf4 1cc0 53e3 0640
00000010: 0d84 6ac0

layers.layer_1.weight f4 [1, 5]
0.97837317 0.31114072 1.1150023 0.81115854 0.3249573
00000000: aa76 7a3f d64d 9f3e 65b8 8e3f 16a8 4f3f
00000010: ce60 a63e
