Notebooks/Models/checkpoint_mlp__1703001657.pt (torch, 1759 bytes, 3 tensors)

layers.layer_0.weight f4 [5, 2]
00000000: b4b0 bbbe d57f 533f 351f 813f 1b4b d33e
00000010: 695a b440 a90f de3e e199 be3c db68 bebd
00000020: f248 a83e 483d bc40
-0.3665825 0.8261693 1.0087649 0.41268238 5.6360364 0.43371323 0.023266735 -0.09297343
0.32868153 5.8824806

layers.layer_0.bias f4 [5]
00000000: 57d6 0ec1 a9d3 bb40 d099 b0c0 9ed1 9cc0
00000010: cec5 bcc0
-8.927329 5.8695874 -5.518776 -4.900588 -5.899146

layers.layer_1.weight f4 [1, 5]
00000000: 7c44 ffbe 3fa0 313f 5b25 133f 2170 84bc
00000010: 6513 323f
-0.49856937 0.6938514 0.57478875 -0.016166748 0.69560844
