Notebooks/Models/checkpoint_mlp__1703000088.pt (torch, 1759 bytes, 3 tensors)

layers.layer_0.weight f4 [5, 2]
00000000: 0b61 14ba 6c10 d040 e9db a9c0 97de e9bb
00000010: a05a d93c 01a3 953e 2062 e83b 6061 c840
00000020: a1ae adc0 e80a 93bc
-0.00056602125 6.5020046 -5.3080945 -0.0071371305 0.026532471 0.29225925 0.0070917755 6.2618866
-5.427567 -0.017949536

layers.layer_0.bias f4 [5]
00000000: 0b8f 71c0 441d 9c40 9d55 a3c0 6023 afc0
00000010: 4acc 4640
-3.7743556 4.8785725 -5.104201 -5.473068 3.1062188

layers.layer_1.weight f4 [1, 5]
00000000: e960 00be 1e7e 44bf 9e87 323e 05ff 303f
00000010: 7839 053e
-0.12536968 -0.7675494 0.17434546 0.6913913 0.13010204
