Notebooks/Models/checkpoint_mlp__1703001639.pt (torch, 1759 bytes, 3 tensors)

layers.layer_0.weight f4 [5, 2]
0	0x3f211879	0.6292797
1	0xbf0f58f5	-0.5599511
2	0x3f79962b	0.97494763
3	0x3ebcee2b	0.36900458
4	0x40ac90a3	5.392656
5	0x3d329b12	0.043604918
6	0xbc96a834	-0.018390752
7	0x3e930eef	0.2872233
8	0x3e55bfb4	0.2087391
9	0x40bdc9fe	5.9309072

layers.layer_0.bias f4 [5]
0	0xc101fd98	-8.124413
1	0x40cb50e7	6.353626
2	0xc0ab391e	-5.3507223
3	0xc0810f20	-4.0330963
4	0xc0ba44f9	-5.8209195

layers.layer_1.weight f4 [1, 5]
0	0x3dd78f7d	0.10525415
1	0x3f33aa8a	0.70182097
2	0x3f2bc7ba	0.67101634
3	0x3dcaa664	0.09895018
4	0x3f3d1b68	0.73869944
