Notebooks/Models/checkpoint_mlp__1703001507.pt (torch, 1759 bytes, 3 tensors)

layers.layer_0.weight f4 [5, 2]
0.20797668 0.49435788 0.7662134 1.0507569 4.003704 0.15593345 0.209274 0.19682637
0.004033602 4.811851
00000000: d7f7 543e 7a1c fd3e 9026 443f 347f 863f
00000010: 581e 8040 05ad 1f3e ec4b 563e da8c 493e
00000020: 4e2c 843b affa 9940

layers.layer_0.bias f4 [5]
-6.7271056 6.6828876 -4.196696 -0.7590428 -5.144816
00000000: 7344 d7c0 37da d540 554b 86c0 a150 42bf
00000010: 55a2 a4c0

layers.layer_1.weight f4 [1, 5]
-0.10950766 0.65970546 0.6021377 0.02893677 0.90815425
00000000: 8d45 e0bd 75e2 283f b225 1a3f ce0c ed3c
00000010: cc7c 683f
