Notebooks/Models/checkpoint_mlp__1703003124.pt (torch, 2327 bytes, 5 tensors)

layers.layer_0.weight f4 [3, 2]
000000 de f5 e9 bf 03 9a 5b 3f d3 ad 01 be 82 de 13 40
       -1.8278158 0.8578188 -0.12663965 2.3104558
000010 7c 08 ca bf 45 b9 80 bf
       -1.5783839 -1.005654

layers.layer_0.bias f4 [3]
000000 2e 6d d2 3f 5d 02 d9 bf 59 ac ce bf
       1.6439569 -1.6953846 -1.6146346

layers.layer_1.weight f4 [2, 3]
000000 ed 3f 81 bd d5 3b 8c 3b ce 47 f0 3b 7e e2 1e c0
       -0.06311021 0.0042795935 0.0073327785 -2.482574
000010 ce 92 07 40 05 f0 2a 40
       2.1183352 2.6708996

layers.layer_1.bias f4 [2]
000000 4a dd 34 bd 76 d5 a4 3e
       -0.04415635 0.32194108

layers.layer_2.weight f4 [1, 2]
000000 61 97 be 3c ca b7 7a 40
       0.023265542 3.9174676
