Notebooks/Models/checkpoint_mlp_adjusted__1703002597.pt (torch, 1759 bytes, 3 tensors)

layers.layer_0.weight f4 [5, 2]
000000 6f 3f 84 3a 2e c7 42 40 d6 67 e4 3c 2f 39 76 40
       0.0010089705 3.043407 0.027881544 3.8472402
000010 25 c5 10 40 44 02 6e bd cd 27 5a 3e 36 48 de 3d
       2.2620327 -0.05810763 0.21304245 0.10853617
000020 b6 85 13 c0 26 63 2c bc
       -2.305036 -0.010521686

layers.layer_0.bias f4 [5]
000000 0b b7 47 c0 2f bc 49 40 68 7a 1d c0 ae ca 91 bf
       -3.120547 3.1521108 -2.460596 -1.1389978
000010 e8 0a 1f c0
       -2.4850407

layers.layer_1.weight f4 [1, 5]
000000 a0 62 9a 3f 67 98 4e bf 55 72 cb 3f bd e1 e7 bc
       1.2061348 -0.807013 1.5894266 -0.028305883
000010 09 22 c8 3f
       1.5635387
