Notebooks/Models/checkpoint_mlp__1703001479.pt (torch, 1759 bytes, 3 tensors)

layers.layer_0.weight f4 [5, 2]
0	0x3f495798	0.7864928
1	0xbf0d5365	-0.55205375
2	0xbf0af3b3	-0.54278105
3	0x3f8c2906	1.0950019
4	0x3fc3aef1	1.5287763
5	0x3ed6f84d	0.41986313
6	0x3d4336fb	0.047659855
7	0x3d10efc4	0.03538491
8	0xbc24e04d	-0.010063243
9	0x40579d89	3.3689902

layers.layer_0.bias f4 [5]
0	0xc099b4ce	-4.803321
1	0x40c7b7fc	6.241209
2	0xc04090e6	-3.008844
3	0x3f84548b	1.03383
4	0xc09341df	-4.601791

layers.layer_1.weight f4 [1, 5]
0	0xbe8040ef	-0.2504954
1	0x3f32ab58	0.697927
2	0x3f4e3040	0.80542374
3	0xbd994e30	-0.07485616
4	0x3f1e06f1	0.6172934
