Notebooks/Models/checkpoint_mlp__1703001513.pt (torch, 1759 bytes, 3 tensors)

layers.layer_0.weight f4 [5, 2]
000000 32 aa 0a bf 56 9d 96 bf 0e 25 52 3f dc 77 6a 3f
       -0.5416595 -1.1766765 0.8208779 0.9158914
000010 0f 41 8a 40 24 79 ab 3d 39 c8 dd be b2 5d a2 3e
       4.3204417 0.08372715 -0.4331682 0.3171211
000020 d3 5d e9 3e 8f 5b b8 40
       0.45579395 5.7611766

layers.layer_0.bias f4 [5]
000000 5a d2 db c0 af 59 d1 40 e5 8a 91 c0 34 76 f3 bf
       -6.8694277 6.5421977 -4.548205 -1.9020448
000010 7f 42 af c0
       -5.476867

layers.layer_1.weight f4 [1, 5]
000000 99 18 22 3f a2 15 2c 3f 2a 2d 26 3f 92 e4 e1 3c
       0.63318783 0.6722051 0.64912665 0.027574811
000010 d6 b1 30 3f
       0.69021356
