Notebooks/Models/checkpoint_mlp_adjusted__1703001917.pt (torch, 1759 bytes, 3 tensors)

layers.layer_0.weight f4 [5, 2]
000000 2b 98 76 bd 43 df 41 40 61 e3 3f 3d 68 61 77 40
       -0.060203712 3.0292518 0.046847705 3.8653202
000010 43 0b 12 40 62 ce 4e bd 23 eb 42 3e 87 8f 96 3d
       2.2819374 -0.05048979 0.1903501 0.073515944
000020 44 74 13 c0 b5 f3 4b bc
       -2.3039713 -0.012448241

layers.layer_0.bias f4 [5]
000000 96 72 47 c0 fa 90 48 40 04 ea 1b c0 16 bf 8f bf
       -3.1163688 3.1338487 -2.4361582 -1.123019
000010 17 e9 1e c0
       -2.4829767

layers.layer_1.weight f4 [1, 5]
000000 d4 ef 99 3f 22 23 4e bf b0 94 cb 3f c4 b4 08 bd
       1.2026315 -0.8052236 1.5904751 -0.033375517
000010 d0 be c5 3f
       1.5448856
