Notebooks/Models/checkpoint_mlp__1703001542.pt (torch, 1759 bytes, 3 tensors)

layers.layer_0.weight f4 [5, 2]
00000000: 6415 9b3e addc 14bf ac86 563f 9f12 a83f
00000010: 3bba 9c40 31b3 c53e fdb8 b73d ce9c c2be
00000020: 7494 833e d12f bc40
0.30289757 -0.58149225 0.8379924 1.3130683 4.897733 0.38613275 0.089708306 -0.38010257
0.25699198 5.880837

layers.layer_0.bias f4 [5]
00000000: bb08 efc0 3f03 c940 965d a0c0 f051 3fc0
00000010: 58bd b3c0
-7.4698157 6.2816463 -5.011424 -2.989376 -5.6168633

layers.layer_1.weight f4 [1, 5]
00000000: 8922 8d3c 1da2 2e3f 01d0 203f 66da 6a3e
00000010: 1bbf 2e3f
0.017228382 0.68216115 0.6281739 0.22934875 0.68260354
