Notebooks/Models/checkpoint_mlp__1703001463.pt (torch, 1759 bytes, 3 tensors)

layers.layer_0.weight f4 [5, 2]
000000 04 e3 00 3f c2 60 7f bf d0 40 f4 3d 5e 57 84 3f
       0.503464 -0.99757016 0.119264245 1.0339162
000010 64 35 2f 3f 32 e8 29 3f a9 fe 8a be bc 09 0f bf
       0.6844084 0.66369927 -0.27147415 -0.5587423
000020 1a 68 c3 3d aa 5d 2b 40
       0.0954134 2.6775918

layers.layer_0.bias f4 [5]
000000 9a c6 85 c0 88 05 c3 40 76 a1 25 c0 0d 20 dc 3f
       -4.1804934 6.094425 -2.5879798 1.7197281
000010 14 7a 8a c0
       -4.327402

layers.layer_1.weight f4 [1, 5]
000000 f7 97 b3 3e 28 3c 22 3f 47 6f 84 3f 83 35 6e 3d
       0.35076877 0.6337304 1.0346459 0.0581565
000010 fd b4 fa 3e
       0.48966208
