Notebooks/Models/checkpoint_mlp__1703001635.pt (torch, 1759 bytes, 3 tensors)

layers.layer_0.weight f4 [5, 2]
000000 ca fd 77 3f 3e 57 55 bf fa 19 52 3f a9 7b c5 3f
       0.96871626 -0.83336246 0.8207089 1.5428363
000010 d2 93 9f 40 24 f9 85 3e c4 0e 06 3f 24 f7 c9 bd
       4.9867945 0.26166642 0.5236628 -0.098615915
000020 69 30 b4 3e ed ed b8 40
       0.35193184 5.7790437

layers.layer_0.bias f4 [5]
000000 77 f1 ef c0 17 c5 c2 40 ab cd a4 c0 20 ff 61 c0
       -7.4982257 6.086559 -5.150106 -3.5311966
000010 fc 99 b5 c0
       -5.675047

layers.layer_1.weight f4 [1, 5]
000000 45 db 04 bf d7 f9 31 3f 99 c6 18 3f e6 f7 a1 be
       -0.5189708 0.6952185 0.59678036 -0.31634444
000010 a7 f5 35 3f
       0.7107796
