Notebooks/Models/checkpoint_mlp__1703000927.pt (torch, 1759 bytes, 3 tensors)

layers.layer_0.weight f4 [5, 2]
00000000: 13d1 053d 879b e040 4440 53bd 989c 89be
00000010: 6fba ae3d 93a8 ddbb 5d4d f2bd 5fe2 b83f
00000020: e2eb afbe a019 e73e
0.03267009 7.0189853 -0.05157496 -0.26877284 0.08531653 -0.0067644804 -0.11831162 1.4444083
-0.34359652 0.45136738

layers.layer_0.bias f4 [5]
00000000: 351b d5c0 89a6 9dc0 20b2 5340 a34d 5ac0
00000010: df67 42c0
-6.659571 -4.926579 3.307747 -3.4109886 -3.0375898

layers.layer_1.weight f4 [1, 5]
00000000: dd66 213f 492e dcbe d7a7 973f 95b3 d3bd
00000010: b03f c63d
0.6304758 -0.43004063 1.1848096 -0.10336987 0.09680116
