Notebooks/Models/checkpoint_mlp_adjusted__1703001801.pt (torch, 1759 bytes, 3 tensors)

layers.layer_0.weight f4 [5, 2]
00000000: bd36 873f 446c eb3d 5889 96bf 3a53 2240
00000010: 8935 cb3c e89d 473f 9f7c a73e 8727 48bf
00000020: 4f9e 56bf 48b8 943f
1.056358 0.114952594 -1.1760664 2.5363297 0.024805801 0.7797532 0.32712266 -0.78185314
-0.8383531 1.1618738

layers.layer_0.bias f4 [5]
00000000: 5c30 3ac0 4ae6 8f40 a36e d7bf 078f 88be
00000010: ce6c 6dc0
-2.9092016 4.4968615 -1.6830639 -0.2667162 -3.709766

layers.layer_1.weight f4 [1, 5]
00000000: 6200 a43f a844 c93e 7bb9 fd3f 4d76 4d3f
00000010: 06a6 643e
1.2812617 0.39310193 1.9822229 0.8025864 0.22328958
