Notebooks/Models/checkpoint_mlp_adjusted__1703002238.pt (torch, 1759 bytes, 3 tensors)

layers.layer_0.weight f4 [5, 2]
0	0xbdd03e65	-0.10168151
1	0x40437f0d	3.0546296
2	0x3c80c298	0.01571779
3	0x407efb24	3.9840784
4	0x40178989	2.3677695
5	0x3cd49d71	0.02595398
6	0xbc901871	-0.01758978
7	0xbed616aa	-0.41814166
8	0xc01828d3	-2.3774917
9	0x3cca62ca	0.02470531

layers.layer_0.bias f4 [5]
0	0xc04cacbc	-3.1980429
1	0x4044fa3c	3.077773
2	0xc021ce0f	-2.5282018
3	0xc0251c96	-2.5798697
4	0xc025f1a3	-2.5928733

layers.layer_1.weight f4 [1, 5]
0	0x3f9731d2	1.1812079
1	0xbf485de6	-0.7826828
2	0x3fc4d68c	1.5377975
3	0xbd012e40	-0.031538248
4	0x3fc1d8cc	1.5144286
