Notebooks/Models/checkpoint_mlp__1703001489.pt (torch, 1759 bytes, 3 tensors)

layers.layer_0.weight f4 [5, 2]
00000000: 7455 ae3e 274d d2be d2d8 e1bd bb36 783f
00000010: 5436 4540 4e84 803e ea72 aabe 3abc 5fbe
00000020: c59d 3bbc 513b 8b40
0.3404957 -0.41074488 -0.11027683 0.9695851 3.081441 0.2510094 -0.33290797 -0.21849146
-0.011451189 4.350991

layers.layer_0.bias f4 [5]
00000000: bf6e b0c0 3528 d040 b049 5ec0 ed7e 233f
00000010: 095c 98c0
-5.513519 6.504908 -3.4732475 0.6386555 -4.7612348

layers.layer_1.weight f4 [1, 5]
00000000: 0652 07be 3b40 273f 84db 2b3f 86dc 163d
00000010: 19eb 723f
-0.13214883 0.6533238 0.6713183 0.0368314 0.9488998
