Notebooks/Models/checkpoint_mlp_adjusted__1703002622.pt (torch, 1759 bytes, 3 tensors)

layers.layer_0.weight f4 [5, 2]
5.9220405 0.02571059 -0.063952334 1.8869172 0.037354693 4.8784122 -0.97251177 -1.7459297
-0.5867656 0.876993
00000000: 5b81 bd40 049f d23c 71f9 82bd 8186 f13f
00000010: 3c01 193d f41b 9c40 88f6 78bf a07a dfbf
00000020: 4536 16bf 9d82 603f

layers.layer_0.bias f4 [5]
-6.1696987 5.198011 -5.4149847 3.6408994 -3.9428945
00000000: 2c6e c5c0 1b56 a640 8e47 adc0 7f04 6940
00000010: 6258 7cc0

layers.layer_1.weight f4 [1, 5]
0.90441006 0.12508339 1.032067 0.16882482 -0.17081484
00000000: 6b87 673f dc15 003e c51a 843f 6ae0 2c3e
00000010: 16ea 2ebe
