Notebooks/Models/checkpoint_mlp__1703003053.pt (torch, 2327 bytes, 5 tensors)

layers.layer_0.weight f4 [3, 2]
000000 23 d1 c7 bf 0b 12 58 3f cb 92 23 bd c6 f7 f6 3f
       -1.5610698 0.8440253 -0.039934915 1.9294364
000010 a3 d6 bd bf 49 db 65 bf
       -1.4831127 -0.8978773

layers.layer_0.bias f4 [3]
000000 c6 b6 cb 3f 6f ac c3 bf b0 22 cc bf
       1.5915153 -1.5286998 -1.5948086

layers.layer_1.weight f4 [2, 3]
000000 0c f3 25 c0 0a 08 0a 40 d1 3e 22 40 56 54 6c c0
       -2.5929594 2.1567407 2.535084 -3.6926475
000010 f1 50 56 40 0c d0 76 40
       3.3486903 3.8564482

layers.layer_1.bias f4 [2]
000000 b1 b1 a4 be 62 5f 25 bd
       -0.32166818 -0.040374167

layers.layer_2.weight f4 [1, 2]
000000 d6 71 ed 3f 33 bb 4f 40
       1.8550365 3.2458007
