Notebooks/Models/checkpoint_mlp__1703001449.pt (torch, 1759 bytes, 3 tensors)

layers.layer_0.weight f4 [5, 2]
00000000: 8ae8 0a3f eea7 e1be 658e 32bf bbb9 1a40
00000010: 01b6 913f 400e 883f 3924 633e 74f1 a73e
00000020: a03b c4be 4247 563f
0.54261076 -0.44073433 -0.69748527 2.417586 1.1383668 1.0629349 0.22181787 0.32801402
-0.3832674 0.8370248

layers.layer_0.bias f4 [5]
00000000: 632e 79c0 27cf 9640 d1c9 03c0 e227 2740
00000010: 312e 84c0
-3.8934562 4.712787 -2.059193 2.6118093 -4.1306386

layers.layer_1.weight f4 [1, 5]
00000000: baab da3e ff5a 173f a3b8 bf3f fc80 863d
00000010: 973a 26be
0.42709142 0.59123224 1.4978222 0.065675706 -0.16233288
