Notebooks/Models/checkpoint_mlp__1703001752.pt (torch, 1759 bytes, 3 tensors)

layers.layer_0.weight f4 [5, 2]
00000000: 4edb 973c 863e 4040 b269 963d 494f 7540
00000010: 3f97 0b40 c469 8ebd 3a68 c53e 951a 9c3f
00000020: 6ba0 0dc0 69b0 63bb
0.01853719 3.0038161 0.073443785 3.8329642 2.1811063 -0.06953767 0.3855608 1.2195612
-2.2129161 -0.00347426

layers.layer_0.bias f4 [5]
00000000: 21b3 41c0 56b9 4f40 49c8 15c0 339f f0bd
00000010: d165 17c0
-3.0265582 3.245687 -2.3403494 -0.11749115 -2.3655894

layers.layer_1.weight f4 [1, 5]
00000000: 58d9 9d3f 06d8 4dbf 4074 d23f de1f d6bd
00000010: 816b ca3f
1.2331953 -0.8040775 1.6441727 -0.10455297 1.5814058
