Notebooks/Models/checkpoint_mlp__1703002869.pt (torch, 2079 bytes, 3 tensors)

layers.layer_0.weight f4 [30, 2]
0	0x3dc5114a	0.09622438
1	0x3f603b81	0.87590796
2	0x3d0f58b0	0.03499669
3	0x3db186bf	0.08668279
4	0xc037b622	-2.8704915
5	0x3df2b588	0.118510306
6	0x3cf6bc31	0.030119034
7	0x3d844a32	0.06459464
8	0x400197f2	2.024899
9	0xbe49a1f4	-0.19690686
10	0x3ce7f95c	0.028317146
11	0x3db0c576	0.08631413
12	0x3ce65a22	0.02811915
13	0x3db09a67	0.086232
14	0x3d03d5df	0.032186385
15	0x3db1f15a	0.08688612
16	0xbe87cdd1	-0.26524213
17	0x4095f51c	4.6861706
18	0x3db9a1b9	0.09064049
19	0x3ee40ccf	0.44541022
20	0x3db13dc0	0.08654356
21	0x40457bf1	3.0856898
22	0x3d2eec24	0.04270567
23	0x3da9743a	0.082741216
24	0x4032a611	2.791386
25	0xbe10482e	-0.14090034
26	0x3d4204d9	0.047367904
27	0x3d9e7af6	0.07738297
28	0x3d3106ea	0.043219484
29	0x3e140760	0.14455938
30	0x3d3b5132	0.04573173
31	0x3da3560c	0.079753965
32	0xbd716ccc	-0.058941647
33	0x3f042d79	0.51631886
34	0xbda07d7c	-0.07836434
35	0xc078e3ee	-3.8889117
36	0x3d29c645	0.04144885
37	0x3da657c6	0.0812221
38	0x3ce7a6aa	0.028277714
39	0x3db0ca53	0.0863234
40	0x40110e88	2.266512
41	0xbddb4fce	-0.10708581
42	0x3e6da7cf	0.23208545
43	0x40774e03	3.8641365
44	0x3db234ce	0.08701478
45	0x3f7d2c68	0.98895884
46	0x3d0382f4	0.03210731
47	0x3db2136e	0.08695112
48	0xbe2e3154	-0.17011005
49	0x3eabb5e4	0.3353721
50	0x3b564931	0.0032697434
51	0x3fdf208b	1.7431806
52	0x3d194fc4	0.037429586
53	0x3dba6bd2	0.09102596
54	0x3d0ffc82	0.03515292
55	0x3db1615c	0.08661148
56	0x3d149974	0.036279157
57	0x3de76b17	0.11299723
58	0x3fe07590	1.7535877
59	0x3dbf01e4	0.093265325

layers.layer_0.bias f4 [30]
0	0xbf854691	-1.041216
1	0xc130309b	-11.011867
2	0xc06a6ba9	-3.662821
3	0xc07ba3ee	-3.9318805
4	0x3f3f126a	0.7463747
5	0xc133884b	-11.220775
6	0xc1339e84	-11.2262
7	0xc131ac2e	-11.104536
8	0x3f4556ad	0.7708538
9	0xbfccf1d9	-1.6011306
10	0xc0637aa3	-3.5543602
11	0xc12acc06	-10.67481
12	0x3fb5d9e9	1.4207126
13	0xc12158ab	-10.084147
14	0xc041278d	-3.018039
15	0xc126ffa2	-10.43741
16	0xc011cf5a	-2.2782807
17	0xc085ff22	-4.187394
18	0xc1180f09	-9.503671
19	0xc1338e11	-11.222184
20	0xc04342da	-3.0509553
21	0x3feeb595	1.8649164
22	0xbf4275ce	-0.75961006
23	0xc131b99c	-11.107815
24	0xc00f1dc0	-2.2361908
25	0xbf73e787	-0.9527516
26	0xc0527110	-3.2881508
27	0xc130183b	-11.005916
28	0xc06b7db2	-3.6795468
29	0xbfeff9ec	-1.8748145

layers.layer_1.weight f4 [1, 30]
0	0x3db01a0e	0.085987195
1	0x3c332c7c	0.010935899
2	0x3fb16ea0	1.3861885
3	0x3a75bb4b	0.0009373917
4	0xbe4ede6b	-0.20202033
5	0x3c4c3e6d	0.012466055
6	0x3c4ce453	0.012505609
7	0x3c3ded40	0.011592209
8	0xbda3ef76	-0.08004658
9	0x3ca39d4d	0.019972468
10	0x3f8905ff	1.0704955
11	0x3c0fd7e8	0.008779503
12	0xbe5d892d	-0.2163436
13	0x3bba82bd	0.0056918547
14	0x3afc6b47	0.0019258045
15	0x3bf41b16	0.007449518
16	0x3d7cfae3	0.0617627
17	0x3f756f11	0.958726
18	0x3b662062	0.0035114517
19	0x3c4c75af	0.01247923
20	0x3fb1944d	1.3873383
21	0xbe7d65a1	-0.247458
22	0x3dd0207f	0.10162448
23	0x3c3e6a15	0.011621972
24	0x3d0f155f	0.03493249
25	0x3e8caf5a	0.27477533
26	0x3a899255	0.0010495881
27	0x3c32707b	0.010891075
28	0x3a34f054	0.0006902267
29	0x3f361c5e	0.71137035
