Notebooks/Models/checkpoint_mlp__1703000766.pt (torch, 1759 bytes, 3 tensors)

layers.layer_0.weight f4 [5, 2]
0	0x3e6f0067	0.23339997
1	0x409e6dd8	4.9509087
2	0xbff7b9dc	-1.9353595
3	0xbe28762f	-0.16451333
4	0x40222aaa	2.533854
5	0xbd06b0f9	-0.032883618
6	0x3c93478a	0.017978448
7	0x40f6f24b	7.717077
8	0xc0372933	-2.8618896
9	0xbd2a2c9d	-0.041546453

layers.layer_0.bias f4 [5]
0	0xc0845d81	-4.136414
1	0x4004946b	2.0715587
2	0xc0329ed3	-2.7909439
3	0xc0d6cb1f	-6.712295
4	0x3f926c0c	1.1439223

layers.layer_1.weight f4 [1, 5]
0	0xbd8510fa	-0.06497379
1	0xbeb97249	-0.36220005
2	0x3f8bb24f	1.091379
3	0x3f1036b8	0.56333494
4	0x3ec6f539	0.38858965
